cuda
----------------------------------------------------------------
        Layer (type)               Output Shape         Param #
================================================================
            Conv2d-1           [-1, 32, 32, 32]             896
              ReLU-2           [-1, 32, 32, 32]               0
       BatchNorm2d-3           [-1, 32, 32, 32]              64
           Dropout-4           [-1, 32, 32, 32]               0
            Conv2d-5           [-1, 64, 32, 32]          18,496
              ReLU-6           [-1, 64, 32, 32]               0
       BatchNorm2d-7           [-1, 64, 32, 32]             128
           Dropout-8           [-1, 64, 32, 32]               0
            Conv2d-9           [-1, 32, 16, 16]           2,080
           Conv2d-10             [-1, 64, 8, 8]          18,496
             ReLU-11             [-1, 64, 8, 8]               0
      BatchNorm2d-12             [-1, 64, 8, 8]             128
          Dropout-13             [-1, 64, 8, 8]               0
           Conv2d-14            [-1, 128, 8, 8]          73,856
             ReLU-15            [-1, 128, 8, 8]               0
      BatchNorm2d-16            [-1, 128, 8, 8]             256
          Dropout-17            [-1, 128, 8, 8]               0
           Conv2d-18             [-1, 64, 8, 8]           8,256
           Conv2d-19             [-1, 32, 8, 8]          18,464
             ReLU-20             [-1, 32, 8, 8]               0
      BatchNorm2d-21             [-1, 32, 8, 8]              64
          Dropout-22             [-1, 32, 8, 8]               0
           Conv2d-23             [-1, 64, 8, 8]             640
           Conv2d-24            [-1, 128, 8, 8]           8,320
             ReLU-25            [-1, 128, 8, 8]               0
      BatchNorm2d-26            [-1, 128, 8, 8]             256
          Dropout-27            [-1, 128, 8, 8]               0
           Conv2d-28             [-1, 64, 8, 8]           8,256
           Conv2d-29           [-1, 48, 10, 10]           3,120
             ReLU-30           [-1, 48, 10, 10]               0
      BatchNorm2d-31           [-1, 48, 10, 10]              96
          Dropout-32           [-1, 48, 10, 10]               0
           Conv2d-33             [-1, 64, 2, 2]          27,712
             ReLU-34             [-1, 64, 2, 2]               0
      BatchNorm2d-35             [-1, 64, 2, 2]             128
          Dropout-36             [-1, 64, 2, 2]               0
AdaptiveAvgPool2d-37             [-1, 64, 1, 1]               0
           Linear-38                   [-1, 10]             650
================================================================
Total params: 190,362
Trainable params: 190,362
Non-trainable params: 0
----------------------------------------------------------------
Input size (MB): 0.01
Forward/backward pass size (MB): 4.00
Params size (MB): 0.73
Estimated Total Size (MB): 4.74
